…
rsion_minor":0,"model_id":"6e741ed233eb481ebaaf85d20347734e"}},"metadata":{}}]},{"cell_type":"code","source":["print(ft.base_model.model)\n","print(ft.peft_config)\n"],"metadata":{"colab":{"base_uri":"https://localhost:8080/"},"id":"sAOqoJh7kRSI","executionInfo":{"status":"ok","timestamp":1745980868804,"user_tz":240,"elapsed":20,"user":{"displayName":"Carl Wheezer","userId":"01232549880719749531"}},"outputId":"42f0d91b-1f57-4375-db3f-b2745a07bca5"},"execution_count":11,"outputs":[{"output_type":"stream","name":"stdout","text":["LlamaForCausalLM(\n","  (model): LlamaModel(\n","    (embed_tokens): Embedding(32000, 2048)\n","    (layers): ModuleList(\n","      (0-21): 22 x LlamaDecoderLayer(\n","        (self_attn): LlamaAttention(\n","          (q_proj): lora.Linear(\n","            (base_layer): Linear(in_features=2048, out_features=2048, bias=False)\n","            (lora_dropout): ModuleDict(\n","              (default): Dropout(p=0.05, inplace=False)\n","            )\n","            (lora_A): ModuleDict(\n","              (default): Linear(in_features=2048, out_features=8, bias=False)\n","            )\n","            (lora_B): ModuleDict(\n","              (default): Linear(in_features=8, out_features=2048, bias=False)\n","            )\n","            (lora_embedding_A): ParameterDict()\n","            (lora_embedding_B): ParameterDict()\n","            (lora_magnitude_vector): ModuleDict()\n","          )\n","          (k_proj): Linear(in_features=2048, out_features=256, bias=False)\n","          (v_proj): lora.Linear(\n","            (base_layer): Linear(in_features=2048, out_features=256, bias=False)\n","            (lora_dropout): ModuleDict(\n","              (default): Dropout(p=0.05, inplace=False)\n","            )\n","            (lora_A): ModuleDict(\n","              (default): Linear(in_features=2048, out_features=8, bias=False)\n","            )\n","            (lora_B): ModuleDict(\n","              (default): Linear(in_features=8, out_features=256, bias=False)\n","            )\n","            (lora_embedding_A): ParameterDict()\n","            (lora_embedding_B): ParameterDict()\n","            (lora_magnitude_vector): ModuleDict()\n","          )\n","          (o_proj): Linear(in_features=2048, out_features=2048, bias=False)\n","        )\n","        (mlp): LlamaMLP(\n","          (gate_proj): Linear(in_features=2048, out_features=5632, bias=False)\n","          (up_proj): Linear(in_features=2048, out_features=5632, bias=False)\n","          (down_proj): Linear(in_features=5632, out_features=2048, bias=False)\n","          (act_fn): SiLU()\n","        )\n","        (input_layernorm): LlamaRMSNorm((2048,), eps=1e-05)\n","        (post_attention_layernorm): LlamaRMSNorm((2048,), eps=1e-05)\n","      )\n","    )\n","    (norm): LlamaRMSNorm((2048,), eps=1e-05)\n","    (rotary_emb): LlamaRotaryEmbedding()\n","  )\n","  (lm_head): Linear(in_features=2048, out_features=32000, bias=False)\n",")\n","{'default': LoraConfig(task_type='CAUSAL_LM', peft_type=<PeftType.LORA: 'LORA'>, auto_mapping=None, base_model_name_or_path='TinyLlama/TinyLlama-1.1B-Chat-v1.0', revision=None, inference_mode=True, r=8, target_modules={'q_proj', 'v_proj'}, exclude_modules=None, lora_alpha=32, lora_dropout=0.05, fan_in_fan_out=False, bias='none', use_rslor
…
